students_documentation/summary_notebook/miscellaneous/pretrained_model.pt (torch, 3551 bytes, 4 tensors)

weight f4 [32, 2]
1.0759212 -1.6053512 -6.56039 0.6442745 0.5706783 -1.5037446 0.88292015 -1.7985297
1.5330157 -2.2173147 -0.49931094 0.7133695 1.2154137 -1.9953182 1.5585002 -2.6133754
0.7339607 -1.396994 0.27534023 0.5279555 6.3940916 3.0139272 -0.68365544 1.8938297
-7.2362127 -2.42495 0.89349765 -1.368486 0.7236707 -1.656158 -0.6909601 1.7494736
0.7626492 -1.3397839 7.808445 2.0262296 -0.5028197 1.7740997 0.7254788 -1.183664
-0.39553472 1.7207175 -0.50301504 1.4619799 -0.5256645 1.6789303 0.892952 -1.6932552
-8.040053 1.6201915 0.8910486 -1.7785367 -1.0377035 2.2402956 1.2850801 -1.7838675
1.1077564 -1.0010681 0.6409665 -1.5671705 0.50137615 -0.13172945 0.92601675 -1.860231
00000000: c9b7 893f 267c cdbf b7ee d1c0 2cef 243f
00000010: f917 123f b47a c0bf 0e07 623f 3936 e6bf
00000020: dc39 c43f 7ce8 0dc0 afa5 ffbe 629f 363f
00000030: ad92 9b3f 9666 ffbf ef7c c73f 8b41 27c0
00000040: d9e4 3b3f b3d0 b2bf 65f9 8c3e 1728 073f
00000050: 669c cc40 2fe4 4040 0b04 2fbf 0369 f23f
00000060: 0e8f e7c0 6132 1bc0 43bc 643f 8d2a afbf
00000070: 7c42 393f fcfc d3bf c3e2 30bf c0ee df3f
00000080: fa3c 433f 0a7e abbf c8de f940 bfad 0140
00000090: cbb8 00bf b315 e33f fbb8 393f 4d82 97bf
000000a0: 8783 cabe 7940 dc3f 98c5 00bf 2822 bb3f
000000b0: f391 06bf 30e7 d63f 8198 643f 96bc d8bf
000000c0: 0fa4 00c1 6f62 cf3f c31b 643f 17a7 e3bf
000000d0: 78d3 84bf 0161 0f40 817d a43f c555 e4bf
000000e0: f6ca 8d3f 0023 80bf 6116 243f 0b99 c8bf
000000f0: 305a 003f 16e4 06be 6f0f 6d3f 0d1c eebf

bias f4 [32]
-1.1044978 -3.3344023 0.6105459 -0.6270898 -1.9800104 -1.7322851 -1.3895155 -1.9757887
-0.14729983 -0.30666125 -3.33118 0.091153644 3.7154744 -0.6060513 -0.114776984 0.15037313
-0.1948573 -3.9465892 -0.51215667 -0.0287405 -0.8577459 -0.34301054 -0.38700977 -0.62662524
-3.3708827 -0.6555727 1.0563724 -1.526633 -1.3441762 0.21747856 -1.2286628 -0.75359005
00000000: 2f60 8dbf d966 55c0 bc4c 1c3f f588 20bf
00000010: fb70 fdbf 85bb ddbf a5db b1bf a5e6 fcbf
00000020: c4d5 16be b402 9dbe 0e32 55c0 c3ae ba3d
00000030: 55ca 6d40 2e26 1bbf 3210 ebbd 6afb 193e
00000040: ac88 47be eb94 7cc0 b31c 03bf 3271 ebbc
00000050: 3c95 5bbf 149f afbe 2526 c6be 836a 20bf
00000060: 8bbc 57c0 9dd3 27bf 3637 873f b668 c3bf
00000070: f70d acbf b3b2 5e3e d344 9dbf 47eb 40bf

weight f4 [2, 32]
-0.65890527 2.3869295 -0.9042883 -1.0568616 -1.1505289 0.084136456 -1.0846221 -1.5387416
-0.82094085 0.03108359 3.113302 1.1104577 -2.9048123 -0.59529173 -0.80056906 0.81367606
-0.39399248 3.1737068 0.8238615 -0.36404157 0.7808555 0.45513028 0.7974478 -1.2256484
3.9905937 -0.84782904 1.0523087 -0.8586346 -0.22388923 -1.0710253 -0.026155643 -0.98424155
0.7958986 -2.329924 1.0004961 0.91491646 1.0704927 -0.08825983 1.0507832 1.4083142
0.94227177 0.2756925 -2.9536684 -1.0417453 2.9107225 0.6445337 0.80386484 -0.82916427
0.36810228 -3.1468756 -1.0352739 0.4805626 -0.89761937 -0.47141287 -0.74725014 0.955778
-3.8806982 0.8947365 -1.2142146 0.63505775 0.23773485 0.8195854 0.1893011 0.91957825
00000000: 04ae 28bf 74c3 1840 707f 67bf 3e47 87bf
00000010: 8844 93bf bc4f ac3d e6d4 8abf 7cf5 c4bf
00000020: 2e29 52bf 03a3 fe3c 5740 4740 7a23 8e3f
00000030: 72e8 39c0 0a65 18bf 18f2 4cbf 134d 503f
00000040: 62b9 c9be 031e 4b40 96e8 523f a863 babe
00000050: 25e6 473f d606 e93e 8a25 4c3f 0ce2 9cbf
00000060: e365 7f40 530b 59bf 0db2 863f 7acf 5bbf
00000070: 3843 65be 5b17 89bf 5c44 d6bc 41f7 7bbf
00000080: 03c0 4b3f 7a1d 15c0 4210 803f f737 6a3f
00000090: e805 893f 92c1 b4bd 1080 863f a443 b43f
000000a0: b938 713f 9127 8d3e e708 3dc0 e957 85bf
000000b0: 4749 3a40 2900 253f 16ca 4d3f 1c44 54bf
000000c0: e777 bc3e 6966 49c0 db83 84bf 4d0c f63e
000000d0: 62ca 65bf 075d f1be c94b 3fbf dead 743f
000000e0: 5c5d 78c0 740d 653f 626b 9bbf 2593 223f
000000f0: c470 733e 59d0 513f 26d8 413e 7b69 6b3f

bias f4 [2]
-0.14872292 0.21535037
00000000: d24a 18be cf84 5c3e
