dev/students_documentation/summary_notebook/miscellaneous/pretrained_model.pt (torch, 3797 bytes, 4 tensors)

weight f4 [32, 2]
000000 bc 23 7d bf 1e 23 be 3f a0 09 e4 3f 7b bd 1e c0
       -0.9888265 1.4854467 1.7815437 -2.480315
000010 a1 f3 f8 bf 04 6d 29 40 76 82 50 3f 89 5c 90 bf
       -1.944935 2.6472788 0.8144907 -1.127824
000020 4d 09 65 3f b9 9b 99 bf a8 92 50 3e 93 f1 31 40
       0.89467317 -1.2000648 0.20368445 2.7803695
000030 bb ff 58 3f ca 12 a6 bf e4 21 42 3f 5c cf a4 bf
       0.84765214 -1.2974484 0.75832963 -1.2875781
000040 4b b2 8b 3f bd b3 a8 bf 2c 00 3e bf fb d2 b6 3f
       1.0913786 -1.3179852 -0.7421901 1.4283136
000050 26 ea 4a bf 5d 9f ac 3f c2 6c f4 bf 19 e8 79 3f
       -0.7926353 1.3486134 -1.909569 0.9761978
000060 08 1a cb 40 10 8b 18 40 de 72 79 3f c6 b9 c2 bf
       6.3469276 2.3834877 0.974409 -1.5212944
000070 9f 64 91 3f e9 76 b6 bf 86 27 ce c0 af d5 42 c0
       1.1358832 -1.4255038 -6.4423246 -3.0442922
000080 f8 05 55 3f a8 f9 84 bf 77 07 f7 c0 24 9e c2 3f
       0.8321223 -1.0388689 -7.719661 1.5204511
000090 e0 55 e4 c0 01 5e 1f c0 80 0e 30 bf 05 1e d3 3f
       -7.135483 -2.4901125 -0.68772125 1.6493536
0000a0 da 41 b3 bf 3b 85 d3 3f 20 99 6d 3f 93 22 ae bf
       -1.4004471 1.6525034 0.92811775 -1.3604301
0000b0 15 51 ec 3f 87 f9 17 c0 eb be c4 bf 29 74 0f 40
       1.8462244 -2.374605 -1.5370764 2.2414649
0000c0 b3 12 86 bf c5 3e cf 3f c1 93 59 3f 7f 80 a1 bf
       -1.0474457 1.6191031 0.8499108 -1.2617339
0000d0 79 19 5f 3f 79 01 80 bf aa 0d 7a 3f f3 b7 3d bf
       0.87148243 -1.000045 0.976771 -0.7410881
0000e0 19 a4 69 bf 7c d3 b9 3f 48 70 4f bf 74 1e b3 3f
       -0.9126602 1.4517665 -0.810307 1.3993669
0000f0 74 39 d0 3f 05 31 0c c0 f2 79 8b 3f 27 a7 59 bf
       1.6267533 -2.190492 1.089659 -0.8502068

bias f4 [32]
000000 19 ca 88 bf b3 65 24 c0 8e 83 35 40 aa 6b 7d be
       -1.0686675 -2.5687072 2.8361545 -0.24748102
000010 cf ac 1d bf e6 51 0d c0 51 d4 0e bf a9 ab e3 3d
       -0.6159181 -2.2081237 -0.5579272 0.11116726
000020 70 ac a4 bf d8 f1 ff be db 5e 3e 3e ad 8c c3 bf
       -1.2865124 -0.499892 0.18590872 -1.5277306
000030 a7 0e 5e c0 3b 62 90 bf d5 3f b1 bf e6 7a 64 40
       -3.4696443 -1.1279978 -1.3847605 3.5700011
000040 b9 55 bb be 54 73 4f c0 ae c8 74 40 50 26 4f bf
       -0.3658884 -3.241414 3.8247485 -0.80917835
000050 fd f8 c0 bf dc b2 64 bf f0 ea 2d c0 7b 99 0c 40
       -1.5075985 -0.8933542 -2.7174644 2.1968677
000060 07 de a3 3f a2 47 f9 be 4e 87 29 bf c1 5e 7b bf
       1.2802132 -0.48687464 -0.66222084 -0.9819146
000070 b4 77 61 3f 15 ac af 3e ac cf 19 c0 2d 56 6e be
       0.8807328 0.34310976 -2.4033003 -0.23275061

weight f4 [2, 32]
000000 13 ec 58 3f a5 2d b0 bf 2f d8 b7 3f f5 d1 c8 be
       0.8473522 -1.376393 1.4362849 -0.39222685
000010 60 7c d3 be 3a 9f 8a 3f 04 98 91 bf 59 84 40 bf
       -0.41305828 1.0829842 -1.1374516 -0.75201946
000020 5d 3b b8 be 17 ab 6a 3f 42 d9 2e 3f fb 79 5b 3f
       -0.3598279 0.9166731 0.6830026 0.85733
000030 60 3d 49 40 ab 40 a7 bf fd 7a 39 bf ce 89 50 c0
       3.144371 -1.306661 -0.7245329 -3.258411
000040 ee c4 4f bf 06 59 a3 40 26 ee 8a c0 c9 ee 5c 3f
       -0.81159866 5.104617 -4.341571 0.8630186
000050 92 d6 8f 3f a3 42 8c bf ef 30 b7 bf 9a 92 9c 3f
       1.1237357 -1.0957836 -1.4311808 1.2232239
000060 35 b5 72 3f de 3e 14 bf b0 60 33 bf b0 b5 47 bf
       0.9480775 -0.5790843 -0.7006941 -0.7801161
000070 ba ce 63 3f 37 0a 2c 3f 29 d8 b8 bf b8 42 5b bc
       0.88987315 0.67203087 -1.4440967 -0.013382606
000080 a8 d0 2b bf 38 26 b8 3f 0c 35 a6 bf 06 4f 9e 3e
       -0.6711526 1.4386663 -1.2984939 0.30919665
000090 c3 be fb 3e 29 94 4f bf b8 3f 5b 3f 3d b0 4f 3f
       0.49168977 -0.8108545 0.856441 0.81128293
0000a0 e2 2f a5 3e fd ab 6a bf d0 91 71 bf 7a bd 37 bf
       0.32263094 -0.91668683 -0.9436312 -0.71773493
0000b0 d9 3e 30 c0 18 21 9e 3f 2c 20 32 3f e7 67 4d 40
       -2.753836 1.235385 0.6958034 3.2094667
0000c0 51 f9 2c 3f 20 ef 96 c0 11 2c 80 40 23 30 30 bf
       0.67567927 -4.71669 4.005379 -0.6882345
0000d0 93 db 8b bf f9 52 3c 3f b1 98 8a 3f 48 06 b3 bf
       -1.0926384 0.73564106 1.0827848 -1.3986292
0000e0 2e c9 85 bf 7f 30 3e 3f ed 24 0e 3f 00 2c 35 3f
       -1.045202 0.7429275 0.55525094 0.70770264
0000f0 00 bf 4d bf 90 0e 5f bf 27 f0 a2 3f db 48 0e 3e
       -0.8036957 -0.87131596 1.2729539 0.1389498

bias f4 [2]
000000 05 75 5c 3d d6 c3 a2 3e
       0.053822536 0.31790036
