v1.3.1/tutorials/miscellaneous/pretrained_model.pt (torch, 3551 bytes, 4 tensors)

weight f4 [32, 2]
0	0x3eee02f2	0.46486622
1	0xbf877a6a	-1.0584233
2	0x3ebe254b	0.37137827
3	0xbf6c8952	-0.92397034
4	0x3f77ccac	0.9679668
5	0xbff248e2	-1.8928492
6	0xbe2222f4	-0.15833646
7	0x3ff6fc7a	1.92958
8	0x3f1ee86b	0.6207339
9	0x402b2c90	2.6745949
10	0xc102d4b5	-8.17693
11	0x3f080f61	0.53148466
12	0x3f7cbe86	0.98728216
13	0xc00e6fad	-2.2255661
14	0x3fdbaf2b	1.7162832
15	0xc02bc8d7	-2.6841333
16	0xc00aaadf	-2.1666791
17	0x3fc13ef1	1.5097333
18	0x40831cac	4.09725
19	0x403ae6f0	2.9203453
20	0xc0b0c1d7	-5.523662
21	0x3e8af2df	0.2713842
22	0x3f75a713	0.9595806
23	0xc0019657	-2.024801
24	0xbe3dc49c	-0.18532032
25	0x3fe41b0a	1.7820752
26	0x3f7ed650	0.99545765
27	0xbfc5bb61	-1.5447809
28	0x404859e0	3.1304855
29	0x4026636c	2.5998182
30	0x40dee55c	6.965498
31	0x40216901	2.522034
32	0xbf0d850e	-0.5528115
33	0x3ff2da3d	1.8972851
34	0x3e63be67	0.22240601
35	0x3f81493a	1.0100472
36	0x3e94e76e	0.29082817
37	0x400f1a92	2.2359967
38	0xbe8ae7d3	-0.27129993
39	0x3ff23c28	1.8924608
40	0x3fb45404	1.408814
41	0xc01b6456	-2.427999
42	0x3e892f2b	0.267938
43	0xbe075af5	-0.13218291
44	0x3f33221a	0.6997391
45	0xbf3e6764	-0.7437651
46	0x3d7adea8	0.061247498
47	0xbff0a92a	-1.8801625
48	0xbdffccca	-0.12490232
49	0x3fc08192	1.5039542
50	0x3ee82b3f	0.45345494
51	0xbfd01755	-1.625712
52	0x3fb0c466	1.3809936
53	0xc02151ef	-2.5206258
54	0x3fee9336	1.8638675
55	0xc02c05ab	-2.687846
56	0xbebf51cf	-0.37367103
57	0x3fda51ea	1.7056248
58	0x3f947ab7	1.159995
59	0xbfe6b869	-1.8025028
60	0x3f393187	0.723412
61	0xbfd6907f	-1.6762847
62	0xc0089bb3	-2.1345031
63	0xbffec278	-1.9903097

bias f4 [32]
0	0x3e89a24a	0.2688163
1	0x3f2c3f04	0.67283654
2	0xbf8a4a79	-1.0803977
3	0xbf87ce0b	-1.0609754
4	0xc008bfed	-2.1367142
5	0xc074537e	-3.817596
6	0xbf9173f0	-1.1363506
7	0xc01608f7	-2.3442972
8	0x3e8d4143	0.27588853
9	0xc013bd6a	-2.308436
10	0xc0532869	-3.2993414
11	0xbf8abd7a	-1.0839074
12	0xbf7d6d3e	-0.98994815
13	0xbf91567f	-1.1354522
14	0xbfc64836	-1.5490787
15	0xc07078c6	-3.7573714
16	0x3deda0f7	0.11602967
17	0xbf879325	-1.059178
18	0xbfeaf890	-1.8357105
19	0xbf548002	-0.83007824
20	0xbff122cd	-1.8838745
21	0xbd039120	-0.032120824
22	0xbea059f0	-0.31318617
23	0x3fc72e61	1.5561029
24	0xbf2c8f9f	-0.6740665
25	0x3ecefd6d	0.40427724
26	0xbfe9a519	-1.8253509
27	0xc023df45	-2.5605023
28	0xbfdbb0cf	-1.7163333
29	0xbfb6d410	-1.4283466
30	0xbf0e79df	-0.5565471
31	0x3f8df3a5	1.108998

weight f4 [2, 32]
0	0xbebcb225	-0.36854663
1	0xbee8de45	-0.45482078
2	0xbf389196	-0.72097147
3	0x3f351f68	0.7075105
4	0x3f2cd43d	0.6751135
5	0x40865e74	4.19903
6	0xbf9d4493	-1.2286552
7	0xbf86002a	-1.04688
8	0xbea35e28	-0.31907773
9	0x3fa18eff	1.2621764
10	0x3fb39537	1.4029912
11	0xbf654170	-0.89552975
12	0x3f0f403d	0.55957395
13	0xbf03f0b7	-0.51539177
14	0x3f53f32f	0.82792944
15	0x403fa67f	2.994537
16	0x3f36777a	0.71276057
17	0x3cb1bd76	0.021696787
18	0x3f7ecc7e	0.9953078
19	0x3f2d50f8	0.67701674
20	0xbf9a41ea	-1.2051365
21	0xbec64c1e	-0.38729948
22	0xbe25c76e	-0.16189358
23	0xbf43dc16	-0.765077
24	0x3c0f47c3	0.008745137
25	0xbf3351ef	-0.70046896
26	0xbfa1dc35	-1.2645327
27	0xbf53ddd4	-0.8276036
28	0x3ecb2612	0.39677483
29	0xbefd3626	-0.49455374
30	0xbf63835e	-0.88872325
31	0xbf1fc957	-0.62416595
32	0x3eb32a3a	0.34993154
33	0x3ec8a410	0.3918767
34	0x3f93d2aa	1.1548665
35	0xbf322fc1	-0.69604117
36	0xbf411239	-0.7541843
37	0xc0a3b188	-5.1154213
38	0x3fbf85fd	1.4962765
39	0x3fa8f610	1.3200092
40	0x3efc3443	0.49258623
41	0xbfb42b5d	-1.4075733
42	0xbfcf81e2	-1.6211512
43	0x3f901708	1.1257029
44	0xbf365e2d	-0.7123745
45	0x3eea17d8	0.45721316
46	0xbf71a8c3	-0.94398135
47	0xc06e6e53	-3.7254837
48	0xbf09ef49	-0.53880745
49	0xbd99cd1f	-0.07509827
50	0xbf4d34f1	-0.8015891
51	0xbf4443b7	-0.76665825
52	0x3fb45c0d	1.4090592
53	0x3ef3998d	0.47578087
54	0x3d194f95	0.03742941
55	0x3f876dbc	1.0580363
56	0xbe22e951	-0.15909316
57	0x3f8e2cf8	1.1107473
58	0x3fbce6d4	1.4757943
59	0x3f850b42	1.0394061
60	0xbe737338	-0.23774421
61	0x3e918618	0.28422618
62	0x3f294730	0.6612425
63	0x3f3fb041	0.7487832

bias f4 [2]
0	0xbed632da	-0.41835672
1	0x3e9560eb	0.29175505
